Params/model_params.pkl (torch_old, 323550 bytes, 10 tensors)

embedding_uid.weight f4 [6041, 8]
0	0x3e972efa	0.29528028
1	0x3fa5526f	1.2915782
2	0xbd85a630	-0.065258384
3	0x3f94f95c	1.1638598
4	0xbf9e8a71	-1.2385999
5	0xbe73f179	-0.23822583
6	0x3f1e9e60	0.6196041
7	0x3f26c787	0.65148205
8	0x3ff39e42	1.9032671
9	0x3d7da628	0.061926037
10	0x3f8d78ae	1.1052454
11	0xbf1aee3c	-0.60519767
12	0xbf724656	-0.94638574
13	0x3eaf763c	0.34269893
14	0xbe9c798b	-0.3056148
15	0xc076765c	-3.850974
16	0x3f0b1839	0.54333836
17	0xbb75aad1	-0.0037485848
18	0xbf5d102b	-0.86352795
19	0xbdfa9ea8	-0.122372925
20	0xbf8b9a03	-1.0906376
21	0x40034913	2.051335
22	0x3e82ae52	0.2552362
23	0x3e5cd04e	0.21563837
24	0x3e8af748	0.27141786
25	0x3f0a981d	0.54138356
26	0x3f83cfaf	1.0297755
27	0x3fca1356	1.5787151
28	0xbeb51dc6	-0.35374278
29	0x3f4c95ff	0.79916376
30	0xbfebfc42	-1.8436358
31	0xbfd5da33	-1.6707214
32	0x3ff6619e	1.924854
33	0xbf77f847	-0.96863216
34	0x4028b9c9	2.6363394
35	0x3ed51f47	0.41625425
36	0xbefc6252	-0.49293762
37	0x3ed3ec49	0.4139121
38	0xc00ca0b3	-2.1973083
39	0xbe79d068	-0.24395907
40	0x3e213fec	0.1574704
41	0x3f556de4	0.83370805
42	0xbab42023	-0.0013742488
43	0x3e1a19bd	0.15048881
44	0x3fe40560	1.781414
45	0x3f85d85b	1.0456651
46	0x3fa0a7de	1.2551229
47	0x3fdec649	1.7404262
48	0x3ee591e4	0.44837868
49	0xbf8671ed	-1.0503517
50	0x4004523d	2.0675194
51	0x40212292	2.517735
52	0xbf9bec0d	-1.2181412
53	0xbe8924f8	-0.26786017
54	0xc01559f9	-2.3336165
55	0xbf1cea10	-0.6129465
56	0x3f8fca9d	1.1233708
57	0xc0356399	-2.834204
58	0x4010443a	2.2541642
59	0x403a647c	2.912383
60	0xbfbab844	-1.4587483
61	0x3fab6e86	1.3393104
62	0x3f0d1252	0.5510608
63	0xc025bccb	-2.589648
64	0x3e38b380	0.18037224
65	0x3d5f59eb	0.05452911
66	0xbf0b6edc	-0.54466033
67	0x40231a48	2.548479
68	0x3e28614a	0.16443363
69	0x3f9e2f43	1.2358173
70	0xc0096182	-2.1465764
71	0xc0088810	-2.1333046
72	0x3f1aff65	0.6054595
73	0x3f407f8e	0.75194633
74	0xbe221da9	-0.15831627
75	0x3fc57cbd	1.5428692
76	0xbf198c49	-0.59979683
77	0xbdd77edf	-0.105222456
78	0x3f94cc9b	1.1624941
79	0xbf538a8a	-0.8263327
80	0x3fa717c2	1.3054125
81	0xc0356af6	-2.8346534
82	0x3fe223f6	1.7667224
83	0x40297dc5	2.6483014
84	0xbfa41f38	-1.2822027
85	0x400f0b34	2.2350588
86	0xbfc8abba	-1.5677407
87	0x3ec1ffc0	0.37890434
88	0xbe9b8a0f	-0.30378768
89	0x3ee70c11	0.45126393
90	0x3f36178d	0.71129686
91	0x3e430cce	0.19047853
92	0xbef7a8db	-0.48371014
93	0xbf03fd70	-0.5155859
94	0xbe15ceb7	-0.14629637
95	0x3dbded9b	0.09273835
96	0x3edbccf5	0.42929807
97	0xbf5bca5d	-0.85855657
98	0x3f61dab2	0.8822433
99	0x3f581cb5	0.84418803
100	0x3eaa755b	0.3329266
101	0x3f79a6a9	0.9751993
102	0x3eabdb55	0.33565775
103	0x3fbefddb	1.492122
104	0x3f94d5fc	1.1627803
105	0x3f98c33e	1.1934583
106	0x400d2345	2.2052777
107	0x3d5f0bbf	0.05445456
108	0x3f946afa	1.1595147
109	0x3f26ddee	0.6518239
110	0x3f3cbb54	0.7372334
111	0xbf3a7b3c	-0.7284429
112	0x3f44f5cd	0.7693756
113	0x3ed9a0f4	0.4250561
114	0xbe36d282	-0.1785374
115	0xbf38f4d1	-0.7224856
116	0x3fc4c967	1.5373963
117	0x3f3675eb	0.7127368
118	0x3ef2ed4b	0.47446665
119	0x3e52c75c	0.20583862
120	0x3f8e4e7d	1.1117703
121	0xbf38e2a7	-0.72220844
122	0xbfb6e51e	-1.4288671
123	0xbe338696	-0.17531809
124	0x3fa2d402	1.272095
125	0x3fe9dd38	1.8270636
126	0xbe23c919	-0.15994681
127	0xbd5f9a2d	-0.054590393
128	0x3f031996	0.51210916
129	0xbfc65a3c	-1.5496287
130	0x3ec40592	0.382855
131	0x3e62d8f8	0.2215308
132	0xbfb525f1	-1.4152204
133	0xbfb203cb	-1.3907408
134	0xc0009244	-2.0089273
135	0xbf991098	-1.1958189
136	0x4015d5a6	2.341165
137	0xbe85926a	-0.26088268
138	0x3f800657	1.0001935
139	0x3ec1fc3b	0.3788775
140	0xc050d0c5	-3.2627423
141	0x40155151	2.3330882
142	0xbfb8ef37	-1.4448003
143	0xbdfd3d0a	-0.12365158
144	0x3f19d34f	0.60088056
145	0xbdaf95b9	-0.08573479
146	0x3fe4fab7	1.7889012
147	0x3fe04d41	1.7523576
148	0xbf95b3f3	-1.1695541
149	0xbf8c2ea7	-1.0951737
150	0xbfb70e9f	-1.4301337
151	0xbf6f8829	-0.9356714
152	0x3ed1b8a4	0.40961182
153	0xbf774246	-0.965855
154	0x3e691db2	0.22765234
155	0x3f45ada9	0.7721811
156	0x3e5d07a9	0.21584953
157	0x3f882ada	1.0638077
158	0x3f85111e	1.0395849
159	0xbef06241	-0.46949962
160	0x3f1fa5db	0.6236245
161	0xbcaab101	-0.020836355
162	0x3f39984d	0.7249802
163	0x4004a706	2.0726943
164	0xc01b329f	-2.4249647
165	0x40258927	2.586496
166	0x3f00bb34	0.5028565
167	0x3eecf0d0	0.46277475
168	0x3f519416	0.81866586
169	0xbef71a35	-0.48262182
170	0xc00e8e4c	-2.227435
171	0xbf183837	-0.5946078
172	0xbef428da	-0.47687417
173	0xbf94a700	-1.1613464
174	0xbee38bda	-0.44442636
175	0x3f9f8787	1.2463235
176	0xbe9acb79	-0.30233362
177	0x3f045129	0.5168634
178	0xbf91ee0f	-1.1400775
179	0x3fad31e2	1.3530848
180	0x3f138967	0.57631534
181	0xbe90fc01	-0.28317264
182	0xbf92bb14	-1.1463342
183	0x3f68b1f5	0.9089654
184	0x3f10848f	0.5645227
185	0x3bdd5c0f	0.006755359
186	0xbe8f4c9f	-0.27988145
187	0xbf03ae81	-0.51438147
188	0xbf9e787b	-1.2380518
189	0xbfc9f400	-1.5777588
190	0xbf5cba26	-0.8622154
191	0x3f87e42e	1.061651
192	0x3dc0cfd2	0.094146386
193	0xbfb4b0bb	-1.4116434
194	0x3e557a21	0.2084737
195	0x3f44754f	0.767415
196	0xbefd2ce2	-0.49448305
197	0x3f9f10ad	1.2426964
198	0xbf0e7985	-0.55654174
199	0xc021e48e	-2.5295749
200	0xbb994ec2	-0.004678578
201	0xbf7f39a8	-0.9969735
202	0x3f3cb7ea	0.7371813
203	0xbf1c8824	-0.61145234
204	0xbfce1b3a	-1.6102059
205	0x3fc54213	1.5410789
206	0xbfb17ead	-1.3866783
207	0xbfd5b3cc	-1.6695495
208	0x3f73b21a	0.95193636
209	0xbe0f2ff4	-0.13983136
210	0xbfa2e1a7	-1.2725114
211	0x3fa26b36	1.2688968
212	0x3ee20090	0.44141054
213	0xc00c1091	-2.1885111
214	0xc0194e8f	-2.3954198
215	0x3f031d71	0.512168
216	0x3f410162	0.75392735
217	0xbf24dc78	-0.6439891
218	0x3f90030e	1.1250932
219	0xbe9b084c	-0.30279768
220	0xbf11599f	-0.56777376
221	0x4029b082	2.6513982
222	0xbe92491f	-0.28571412
223	0xbf69ab8a	-0.9127737
224	0xbf499d66	-0.78755796
225	0x3ed1ee36	0.41002053
226	0x3f1741d1	0.590848
227	0xbe8a9311	-0.27065328
228	0xbfae4a93	-1.3616508
229	0x3f2eb18b	0.6823966
230	0x3ea42a0e	0.32063335
231	0xbf0bf8d4	-0.54676557
232	0xbd87538a	-0.06607731
233	0xbe3440a2	-0.1760278
234	0x3f9658cb	1.1745847
235	0xbfaf8a03	-1.3713993
236	0xbf30104f	-0.68774885
237	0xbf0ef3f4	-0.5584099
238	0xbd89329a	-0.066991046
239	0xbeeb7a59	-0.4599178
240	0xbfb109c0	-1.38311
241	0xbea21dd9	-0.31663397
242	0x3d55ee8e	0.052229457
243	0xbf9ffb77	-1.2498616
244	0x3ed58650	0.41704035
245	0xbf8adcfd	-1.084869
246	0xbe98f1e6	-0.29872054
247	0xbf5073f8	-0.81426954
248	0xbda27549	-0.079325266
249	0xbfdf8f21	-1.7465554
250	0x3f0c13c0	0.54717636
251	0xbe357ca2	-0.17723325
252	0xbf2e20fb	-0.68019074
253	0x3e4b8506	0.19874963
254	0xbfad0bcd	-1.3519226
255	0xbe09a6b8	-0.13442504

embedding_gender.weight f4 [2, 8]
0	0x3f1f230e	0.62162864
1	0xbf06a42d	-0.5259426
2	0xbf37ce00	-0.71798706
3	0x401aeb38	2.4206066
4	0xbfb30d2f	-1.3988398
5	0x404e679a	3.2250733
6	0xbfb48e14	-1.4105859
7	0xbf837243	-1.0269245
8	0x3ee72f94	0.45153487
9	0x3e54265c	0.20717758
10	0x404511bc	3.0792074
11	0x3f5c1ca4	0.859812
12	0xbfba2f05	-1.4545599
13	0x4045b9e8	3.0894718
14	0xbfd24121	-1.6426126
15	0xbfb889df	-1.4417075

embedding_age.weight f4 [7, 8]
0	0x3fe54f5a	1.7914841
1	0xc087bdaf	-4.2419047
2	0x3f1997b6	0.5999712
3	0x40400596	3.000341
4	0xc0117fe7	-2.2734315
5	0x3eb9729b	0.3622025
6	0x3e865cb0	0.2624259
7	0xbfea7490	-1.8316822
8	0xbe46a25e	-0.19397876
9	0xbf11606a	-0.5678774
10	0xbf26af80	-0.6511154
11	0x4010fdcf	2.2654912
12	0xbfbcce53	-1.4750465
13	0x402f4247	2.7384202
14	0xbf09d038	-0.5383334
15	0xc00607e3	-2.0942314
16	0x3fab41e9	1.3379489
17	0xbfc524dc	-1.5401874
18	0x3f37b792	0.7176448
19	0x3fe3f3d2	1.7808783
20	0xbf30a6ea	-0.6900469
21	0x40577a68	3.366846
22	0x3f0db103	0.55348223
23	0x3e1cd229	0.15314545
24	0x3fce3dac	1.6112571
25	0xbf81c25c	-1.0137439
26	0x3f991214	1.1958642
27	0x3fb4a30c	1.4112258
28	0xbf2a309e	-0.66480434
29	0x4007b31a	2.1203065
30	0x3cbe1854	0.02320496
31	0xbff665e5	-1.9249846
32	0x3ff77656	1.9332988
33	0xc002f1f5	-2.046018
34	0x3f924f6c	1.1430488
35	0x3ff2abc7	1.8958672
36	0xbfdf9db7	-1.7470006
37	0x3faaaefd	1.3334652
38	0x3f4f52e4	0.80985856
39	0xc0077a8d	-2.116855
40	0x3f8a6437	1.0811833
41	0x3ef7ab3f	0.48372838
42	0x3fd5377c	1.6657557
43	0x3fde7cbe	1.7381818
44	0xbfbf32ef	-1.4937419
45	0x3f913301	1.134369
46	0xbf0776cc	-0.52915645
47	0xbf853cd4	-1.0409188
48	0x3f7ccb4d	0.9874771
49	0xbf98ec9c	-1.1947207
50	0x3ff58e17	1.9183987
51	0x3fdb32f5	1.7124926
52	0xbfef56e7	-1.8698395
53	0x3faa79ca	1.3318417
54	0x3f4e7dd7	0.80660766
55	0xbfc9d45c	-1.5767932

embedding_job.weight f4 [21, 8]
0	0x3f35ccee	0.7101582
1	0xbfe70f15	-1.8051478
2	0x3f9d908a	1.2309735
3	0x3db9e170	0.09076202
4	0xbf6cefc1	-0.92553335
5	0x3faa335a	1.3296921
6	0xbf4b3840	-0.79382706
7	0xbeb94cee	-0.36191505
8	0xbe3a3eee	-0.18188068
9	0x3e0a58b5	0.13510402
10	0xbee2dfd0	-0.4431138
11	0xbdbfbdc5	-0.093623675
12	0xbf95fb6e	-1.1717355
13	0x3f890411	1.0704366
14	0xbf4268e0	-0.75941277
15	0xbf8a401e	-1.0800817
16	0x3f8710d0	1.0552006
17	0x3f34ac69	0.7057558
18	0x3f56f94b	0.8397414
19	0x400c830d	2.1954987
20	0x3ffa51de	1.9556234
21	0x3fb5dc1e	1.42078
22	0xc00ee295	-2.2325795
23	0xbf9e32a0	-1.23592
24	0x3fd4fcb9	1.6639625
25	0xbf812cf4	-1.0091844
26	0x3fd17c93	1.6366142
27	0x3f3d9666	0.74057615
28	0xbfd7852d	-1.6837517
29	0x3da6e742	0.08149578
30	0xbf61cfb0	-0.8820753
31	0xc0508b99	-3.2585204
32	0x3df2a75f	0.1184833
33	0xbf6d53af	-0.92705816
34	0x3f4d2354	0.8013203
35	0x3f1429b1	0.57876116
36	0xc009d3c8	-2.153551
37	0x3f72cd3e	0.94844425
38	0xbfbf5b43	-1.4949726
39	0xbf1bfc00	-0.60931396
40	0x3fc79284	1.5591588
41	0xc0039406	-2.0559096
42	0x3f8e81cb	1.113336
43	0xbeb3c4b7	-0.3511102
44	0xc015b20d	-2.3389924
45	0x3fbb26c7	1.4621209
46	0x3f8a1564	1.0787778
47	0xbfbe9189	-1.4888164
48	0xbee4d028	-0.4469006
49	0xbc2ac8d2	-0.010423856
50	0x3f65ad90	0.8971796
51	0x4009103e	2.1416163
52	0xbfd08796	-1.6291378
53	0x3f9920d1	1.196314
54	0xbea3badf	-0.3197851
55	0xbfdcc1bd	-1.7246624
56	0x3f934819	1.1506377
57	0xbf8d42e7	-1.1036042
58	0x3fb4c891	1.4123708
59	0xbe1303a7	-0.14356862
60	0xbf9a2129	-1.204137
61	0x3ec2edbf	0.3807201
62	0xbfd4590b	-1.6589674
63	0xbefbaa4d	-0.49153367
64	0xbf05c3b7	-0.5225176
65	0x3f823d0f	1.0174884
66	0xbd8c0164	-0.06836203
67	0x3f8dab85	1.1067969
68	0xbed7bc01	-0.42135623
69	0x3e2b2874	0.1671465
70	0x3cdf8496	0.027284902
71	0xc079be02	-3.9022222
72	0x3ff2c851	1.8967382
73	0xbf40d582	-0.7532579
74	0xbeb167fd	-0.3464965
75	0x3ed4fe43	0.41600236
76	0xbf94347a	-1.1578515
77	0x3fa847ef	1.3146952
78	0xbf282bd4	-0.65691876
79	0xbfbe47eb	-1.4865698
80	0x3e1fc80b	0.15603654
81	0x3ef9b637	0.4877183
82	0x402797d3	2.6186416
83	0xbd2310b7	-0.039810862
84	0xbfbc2bd0	-1.470087
85	0x3fc38ff5	1.5278307
86	0xbfc631ab	-1.5483907
87	0xbff17177	-1.8862752
88	0x3fe89618	1.8170805
89	0xbf1f0228	-0.62112665
90	0x3e200f3d	0.15630813
91	0xbe4ef9c5	-0.20212467
92	0xbf0869a1	-0.53286177
93	0xbecc2378	-0.3987081
94	0xbf0d8a41	-0.55289084
95	0xbf8c94d7	-1.0982922
96	0x3f170171	0.58986574
97	0xbf8d0721	-1.10178
98	0x3f4096b0	0.7522993
99	0x3f8c88f5	1.0979296
100	0xbff2d81f	-1.8972205
101	0x3f152fb4	0.58275914
102	0xbedfe3b7	-0.4372842
103	0xbfe82412	-1.8136008
104	0x3ea5e84d	0.32403794
105	0xbfba1cfb	-1.4540094
106	0x3ee84d0f	0.4537129
107	0x3e82f28d	0.25575677
108	0xbf80d1f8	-1.0064077
109	0x400dba88	2.21451
110	0xbf3e540c	-0.74346995
111	0xbf4a0e96	-0.78928506
112	0xbe5f5475	-0.21809562
113	0xbf395b82	-0.72405255
114	0x3f4a5bc4	0.79046273
115	0x3fb71015	1.4301783
116	0xbfe07de1	-1.7538415
117	0x3fc26288	1.5186319
118	0xbfbbe197	-1.467822
119	0xbf594a1e	-0.8487872
120	0x3fbc26b0	1.4699306
121	0xbf936a23	-1.1516765
122	0x3bf6cca1	0.007531718
123	0x3f979aad	1.1844078
124	0xbd5f2709	-0.054480586
125	0x3f84a928	1.0364122
126	0xbfa09eb8	-1.2548437
127	0x3e8272ee	0.2547831
128	0xbeaed98a	-0.34150344
129	0xbf816eb7	-1.0111912
130	0x3fa6be7f	1.3026885
131	0x3f1cafe6	0.612059
132	0xc01dc935	-2.4654057
133	0x3f9822bf	1.1885604
134	0xbf9e3564	-1.2360044
135	0xbfb2e714	-1.397677
136	0x401d6bd9	2.4597075
137	0xbfe22965	-1.7668883
138	0xbf222728	-0.63341
139	0x40193b5c	2.394248
140	0xbf7ef487	-0.9959187
141	0x3d9f46a3	0.07777145
142	0xbf96085a	-1.1721299
143	0xbf78574a	-0.9700819
144	0x3fbb60c8	1.463891
145	0xbf975e65	-1.1825682
146	0x3f41cd9e	0.7570437
147	0x3edecbf5	0.43514982
148	0xbfa31ad6	-1.2742565
149	0x400c4f71	2.1923487
150	0xbf490344	-0.7852061
151	0xbfa27247	-1.2691125
152	0x3fdb9edc	1.7157855
153	0xbfbcaf85	-1.4741064
154	0xbf6da036	-0.9282259
155	0x3fd21f6f	1.6415843
156	0x3f63d67e	0.88999164
157	0x3e8bc232	0.27296597
158	0xbfc2782a	-1.5192921
159	0x3e99d4b0	0.3004508
160	0x3f823e31	1.0175229
161	0x3dab6dcc	0.083705515
162	0xbea92b3b	-0.33040795
163	0x3cf619ae	0.030041542
164	0xbff9cddc	-1.9515948
165	0xbf2434dc	-0.64143157
166	0xbe64cd3b	-0.22343914
167	0xc0187ced	-2.3826249

embedding_mid.weight f4 [3953, 8]
0	0x3fc87fce	1.5664003
1	0xbdffbf4e	-0.1248766
2	0x3fb32abb	1.3997415
3	0x3efd04a8	0.49417615
4	0xbd979f18	-0.074033916
5	0x3f8dd9af	1.1082057
6	0xbf91f6e0	-1.1403465
7	0x3f62e341	0.8862801
8	0xbffec7fc	-1.990478
9	0x3f8dadf5	1.1068712
10	0x3de463fc	0.11151883
11	0x3f34aed6	0.7057928
12	0xc00123c5	-2.0178082
13	0xc01562f2	-2.3341641
14	0x40191ef3	2.392514
15	0x3f739278	0.9514537
16	0x3f51c86d	0.8194645
17	0x3e151dc4	0.14562136
18	0x3f0389de	0.51382244
19	0xbf82cdbe	-1.0219038
20	0xbf0d00f0	-0.55079556
21	0x3f75049e	0.9571017
22	0xbf820952	-1.0159094
23	0x40058f93	2.086888
24	0x3eaa71b7	0.33289883
25	0xbf69498a	-0.91127837
26	0x3e6ba8aa	0.23013559
27	0xbdee250e	-0.11628161
28	0x3f7dd70b	0.99156255
29	0xbf9abea7	-1.2089432
30	0x3cb07da9	0.021544294
31	0xbdbdd8c4	-0.092698604
32	0xbf02e5ae	-0.51131713
33	0xbf9abd66	-1.208905
34	0x3fa24937	1.2678593
35	0x3f9f5578	1.2447958
36	0x3e9b4ebb	0.30333504
37	0xbdc92bcd	-0.098228075
38	0xbf9bc70e	-1.2170122
39	0x3e0178e9	0.1264378
40	0xbe8337e4	-0.2562858
41	0x3f3aa48b	0.7290732
42	0xbfd3af34	-1.6537843
43	0xbf727f9e	-0.9472598
44	0x3fa42a3b	1.2825388
45	0x3f9c1b9b	1.2195925
46	0xc003919f	-2.055763
47	0xbda2f2f2	-0.079564944
48	0xbeb22680	-0.34794998
49	0xbd8f6f0f	-0.070036046
50	0xbea6b4f6	-0.32559937
51	0xbf4346ed	-0.762801
52	0xc0507f2a	-3.2577615
53	0xbecf1fe0	-0.40454006
54	0x3fe660a1	1.7998239
55	0x3f882b8c	1.063829
56	0xc003e24c	-2.060687
57	0x3f6ec2db	0.93266076
58	0xbe15cc66	-0.14628753
59	0xbf903074	-1.1264787
60	0xbdc38825	-0.09547452
61	0x3e82912b	0.2550138
62	0xbf542542	-0.8286935
63	0xbe43f09f	-0.19134758
64	0xbfa41457	-1.2818707
65	0xbf3e7db5	-0.74410564
66	0x3f94d880	1.162857
67	0x3ffdbf10	1.9823933
68	0xbd759ab0	-0.059961975
69	0xbefa8e94	-0.48936903
70	0xbe83697d	-0.2566642
71	0x3eadd270	0.33949614
72	0xbe50114e	-0.20319101
73	0xbf9c4ec6	-1.221154
74	0xbd3b22f1	-0.04568762
75	0x3d85b550	0.06528723
76	0x3e1e625b	0.15467207
77	0x3f759fef	0.95947164
78	0xc037eb17	-2.8737237
79	0xbe055506	-0.13020715
80	0x3f81ab6b	1.0130438
81	0xbf0956cb	-0.5364806
82	0x3fade3bb	1.3585123
83	0xbf95236b	-1.1651434
84	0xbeab6896	-0.3347823
85	0xbfc09731	-1.504614
86	0x3fcbd911	1.5925618
87	0x401ee9a4	2.4830103
88	0x3e41e365	0.189344
89	0x3fa35a04	1.2761846
90	0x3dc9de5a	0.09856863
91	0xbf8be47d	-1.0929104
92	0xc061b465	-3.5266354
93	0xbe8b0049	-0.27148655
94	0x3d061f17	0.032744493
95	0x3f8fbda0	1.1229744
96	0x3fedcc06	1.8577888
97	0xbf93b29d	-1.1538883
98	0xbf26daf1	-0.6517783
99	0x3f9ceb90	1.2259388
100	0x40046113	2.068425
101	0x3f97b3c9	1.1851741
102	0xbf5e62b8	-0.8686938
103	0xbff60e25	-1.9223067
104	0xbf32bef8	-0.69822645
105	0x3dba1b8a	0.09087284
106	0xbece6b32	-0.4031616
107	0xbff725dc	-1.9308429
108	0xbf01d46f	-0.5071477
109	0x3e1063f0	0.14100623
110	0xbf86942b	-1.0513967
111	0xbea4837e	-0.3213157
112	0x3f21ab07	0.6315159
113	0x3fad671f	1.3547095
114	0xbf840b78	-1.0316
115	0xbd7ac530	-0.06122321
116	0xbf3bf31e	-0.7341784
117	0x3ecea1de	0.4035787
118	0x3fa7148a	1.3053143
119	0x3f83d01d	1.0297886
120	0x3fa7ac93	1.309954
121	0xbfe9ea50	-1.8274632
122	0x3fd7a366	1.684674
123	0xbf3a5959	-0.72792584
124	0x3eaaddc8	0.3337233
125	0x3f955bbe	1.1668622
126	0xbff36d24	-1.9017682
127	0x3f13f8a4	0.5780127
128	0xbf5eebf3	-0.8707878
129	0x3f5623a5	0.8364814
130	0xbf7c46d2	-0.98545563
131	0xbfa20f88	-1.266099
132	0xbfddace8	-1.7318392
133	0xbf54672f	-0.82969946
134	0x3fbf74da	1.4957535
135	0xbf2938d2	-0.66102326
136	0xbfe85899	-1.8152038
137	0x3fe95108	1.8227854
138	0xbf59efcc	-0.85131526
139	0xc03d7ee4	-2.9608698
140	0xbf462938	-0.77406645
141	0xbf67c6ae	-0.90537536
142	0x3e2f6400	0.1712799
143	0x3fd35fc7	1.6513604
144	0xbf544859	-0.82922894
145	0x3e45f719	0.19332542
146	0xbf746f53	-0.9548237
147	0xbd9a5c08	-0.07537085
148	0x3f415147	0.75514644
149	0x3faa5e84	1.3310094
150	0x3f2c82d5	0.67387134
151	0x3fc64a91	1.5491506
152	0x3e3fe6f3	0.18740444
153	0xbf7325cb	-0.9497954
154	0x3ffba8cd	1.9660889
155	0x3ff7a65d	1.9347645
156	0x3fe18300	1.7618103
157	0x3d2b6dd7	0.0418528
158	0xbd8bea6c	-0.06831822
159	0xbf6c69fe	-0.9234923
160	0x3f9400ea	1.1562779
161	0x3dd8897b	0.10573097
162	0xbcd59ec5	-0.026076684
163	0x3fa135b5	1.2594515
164	0x3f8f9e0e	1.122011
165	0x403683f2	2.8518033
166	0xbfb0357e	-1.3766325
167	0x3f39fbf3	0.7265007
168	0x3d1e340e	0.038623862
169	0x3f1613c7	0.5862393
170	0xbf7ecdd8	-0.9953284
171	0x3f0cf569	0.55061966
172	0xbf912528	-1.1339464
173	0xbfa134b3	-1.2594208
174	0x3f919447	1.1373376
175	0x3ec45f1b	0.3835381
176	0xbf416fb2	-0.7556106
177	0xbf6dd8b8	-0.9290881
178	0x3ef05fff	0.4694824
179	0x3f5f1617	0.8714308
180	0xbe8213bd	-0.25405684
181	0xbf432b33	-0.7623779
182	0xbd95a65d	-0.07307122
183	0x401d80a6	2.460977
184	0xbee017fd	-0.43768302
185	0xbf99b54e	-1.2008455
186	0xbe2d68aa	-0.16934457
187	0x3fea51ae	1.8306177
188	0x3f616384	0.88042474
189	0x4012cdc6	2.2938094
190	0x3f154e7c	0.5832288
191	0x3f1ddb6c	0.61662936
192	0xbeb090ab	-0.34485373
193	0x3f8bd678	1.0924826
194	0x40051e46	2.0799727
195	0x3f279935	0.6546815
196	0x3ee3116c	0.4434923
197	0x3f8ecbbb	1.1155924
198	0x3f8dff42	1.1093524
199	0x3f721bec	0.94573855
200	0xbfb83726	-1.439183
201	0xbebc6e2d	-0.36802807
202	0xbf06d70b	-0.5267188
203	0x3e2dddc7	0.16979133
204	0xbfa1bb7b	-1.263534
205	0xbfa9f91c	-1.3279147
206	0x3fd37f68	1.6523256
207	0xbd92d200	-0.071689606
208	0xbf8152da	-1.0103409
209	0xbee16371	-0.4402118
210	0xbf0466d6	-0.51719415
211	0xbf4b30cb	-0.7937133
212	0x3f3a496a	0.7276827
213	0xbf635896	-0.88807046
214	0x4030ca38	2.7623425
215	0x3d047fe4	0.03234853
216	0x3f2615ad	0.64876825
217	0x3fb91be4	1.4461637
218	0x3f5d68ae	0.86487854
219	0x3d159046	0.036514543
220	0xbe06850d	-0.13136692
221	0xbd800cb1	-0.06252421
222	0xbfb73ebc	-1.431602
223	0x3e4b2cac	0.1984126
224	0x3deccffd	0.11563108
225	0x3f54c685	0.83115417
226	0xbfa68d34	-1.3011842
227	0xbf753d1e	-0.9579638
228	0xc012f943	-2.2964637
229	0xbfe6e460	-1.8038445
230	0x3fde370d	1.736055
231	0x3fe69597	1.8014401
232	0xbfb5c9e6	-1.420224
233	0x3e7aa1a4	0.24475724
234	0xc003f2bd	-2.0616906
235	0xbf12c46e	-0.5733098
236	0xbfb0420f	-1.377016
237	0xbfd6982c	-1.6765189
238	0x3fa3cc0c	1.2796645
239	0x3fe191e9	1.7622653
240	0xbfe5c682	-1.7951205
241	0x3f2e6fe0	0.6813946
242	0x3e8f55e9	0.27995232
243	0xbf9fa7ed	-1.2473122
244	0xbf3fb980	-0.74892426
245	0xbe33f62d	-0.17574377
246	0x3f6fe2c4	0.9370539
247	0x3fd0b325	1.630467
248	0x3f73f97f	0.95302576
249	0xbe153857	-0.14572273
250	0xbf5e0240	-0.86722183
251	0xbf2f7e98	-0.6855254
252	0x3f7dd784	0.99156976
253	0x3f903f33	1.1269287
254	0x3fb1dab5	1.3894869
255	0xbf213ea1	-0.6298619

att_linear1.weight f4 [8, 16]
0	0xbdfda054	-0.12384096
1	0xbe7fae14	-0.2496875
2	0x3df9245c	0.12165138
3	0x3db9ee1c	0.09078619
4	0xbd8da39c	-0.06915972
5	0xbd7b9a00	-0.061426163
6	0xbd21ce80	-0.039503574
7	0xbe5d38e0	-0.21603727
8	0xbe5d600a	-0.21618667
9	0x3d5bf028	0.053695828
10	0x3e570da8	0.21001303
11	0x3d820de4	0.06350306
12	0xbe067534	-0.13130647
13	0xbc441da0	-0.011969954
14	0xbcad1570	-0.021128386
15	0x3e3bfc82	0.18358043
16	0xbd27eb60	-0.040995955
17	0x3d860390	0.06543648
18	0xbe5efe7a	-0.21776763
19	0x3ce560a0	0.028000176
20	0x3e6387da	0.22219792
21	0xbd20a3e0	-0.039218783
22	0xbe422bf8	-0.18962085
23	0xbd041f70	-0.032256544
24	0xbce304f0	-0.027712315
25	0xbc8ebc90	-0.017423898
26	0xbe022b2c	-0.12711781
27	0x3e58ea22	0.21183065
28	0xbe12c9ac	-0.14334744
29	0xbcab9810	-0.020946532
30	0x3c26f140	0.010189354
31	0xbe7e4c3e	-0.24833772
32	0xbdbe58c0	-0.092942715
33	0xbe3b68d8	-0.18301713
34	0x3e014d08	0.12627041
35	0x3e3dcefe	0.18535993
36	0x3cd68b80	0.026189566
37	0x3d696408	0.056980163
38	0x3da8d8a0	0.08244443
39	0xbe306e46	-0.17229566
40	0xbe4d155c	-0.20027679
41	0xbdf9a4b0	-0.12189615
42	0xbcbc9d80	-0.02302432
43	0xbdf71310	-0.12064183
44	0x3e3bc9e4	0.18338734
45	0xbe54bd0c	-0.2077524
46	0x3e1a5ef2	0.15075281
47	0xbdb1e2b4	-0.08685818
48	0xbddd2938	-0.107988775
49	0x3e1ec43c	0.15504545
50	0x3e0fb004	0.14031988
51	0xbbcd2b40	-0.0062612593
52	0xbe41730c	-0.18891543
53	0xbe3b5cc4	-0.18297106
54	0xbdef0808	-0.11671454
55	0x3e6df44c	0.23237723
56	0xbe19aba8	-0.15006888
57	0xbde9f204	-0.11423114
58	0x3e31aabc	0.17350286
59	0x3e1fce6e	0.1560609
60	0xbe27c6c4	-0.16384417
61	0xbe308276	-0.17237267
62	0xbd2941e8	-0.04132262
63	0xbdffa6e8	-0.12483007
64	0xbd7c6938	-0.061623782
65	0xbe35cc1a	-0.1775364
66	0xbd14b4e0	-0.03630531
67	0xbc2d12a0	-0.010563523
68	0xbe6cc4a0	-0.23121881
69	0xbe0d5dc4	-0.138053
70	0x3e7a3fde	0.24438426
71	0xbdd5f230	-0.10446584
72	0x3d57fa20	0.052728772
73	0xbe510d60	-0.20415258
74	0xbe77d390	-0.24201798
75	0xbe790994	-0.2432006
76	0x3d637c00	0.055538177
77	0xbce206e0	-0.027591169
78	0xbcceba80	-0.025235415
79	0x3d532fa8	0.05155912
80	0xbb835c80	-0.0040088296
81	0x3d0ccbc8	0.03437403
82	0xbe0cf950	-0.1376698
83	0xbe54cdfe	-0.20781705
84	0x3e6483f8	0.22315967
85	0xbe717a14	-0.23581725
86	0x3cfdcdc0	0.030981898
87	0x3e6e018a	0.23242775
88	0x3c852000	0.01625061
89	0xbe52ca16	-0.20584902
90	0x3c8f2c90	0.017477304
91	0x3e0246c8	0.12722313
92	0xbcd0b070	-0.025474757
93	0xbd14c5b0	-0.036321342
94	0x3e3d9dd6	0.18517241
95	0xbe0a5372	-0.13508394
96	0x3d3d65e8	0.046239763
97	0x3e48a9f8	0.19596088
98	0x3dd6b580	0.10483837
99	0xbe4c6318	-0.19959676
100	0xbd454028	-0.048156887
101	0x3d98e218	0.07464999
102	0x3d110a60	0.035410285
103	0x3e1ab4fa	0.151081
104	0x3e49320e	0.19648
105	0xbd5a2980	-0.053262234
106	0xbdae6b28	-0.08516532
107	0x3e30278c	0.17202586
108	0xbe6de2f2	-0.23231104
109	0xbe30a41c	-0.17250103
110	0xbcf4e840	-0.029895902
111	0x3d968aa0	0.07350659
112	0xbd8f160c	-0.06986627
113	0xbe5e96ee	-0.21737263
114	0xbe486c56	-0.19572577
115	0xbe0890c2	-0.1333647
116	0x3d90f3a0	0.07077718
117	0x3e1649b8	0.14676559
118	0xbd09daa8	-0.033655792
119	0x3d10f648	0.035391122
120	0x3cc071b0	0.02349171
121	0xbd724948	-0.059151918
122	0xbd338490	-0.043827593
123	0x3d6afec8	0.057371885
124	0xbe6e52f0	-0.23273826
125	0x3e56c602	0.20973971
126	0xbdf11918	-0.117723644
127	0xbd526a68	-0.05137101

att_linear1.bias f4 [8]
0	0xbddb0678	-0.10694593
1	0xbd5b8548	-0.053593904
2	0x3dcf64f8	0.1012668
3	0x3caf2470	0.02137968
4	0x3d3aebc8	0.045635015
5	0x3dea49bc	0.11439845
6	0xbe2370aa	-0.15960947
7	0x3dc3aba4	0.09554222

att_linear2.weight f4 [1, 8]
0	0x3d98f438	0.07468456
1	0x3de9ba50	0.114124894
2	0x3e9f8283	0.3115426
3	0xbdc957a4	-0.09831169
4	0x3e1f6e16	0.15569338
5	0xbe179161	-0.14801551
6	0x3d824f18	0.06362742
7	0x3d289778	0.041160077

vector2rate.weight f4 [1, 16]
0	0xbe3cb00e	-0.18426535
1	0xbe3fd66c	-0.18734139
2	0x3de86630	0.11347616
3	0xbe727c88	-0.23680317
4	0x3e478dbc	0.19487661
5	0x3df5cdac	0.120021194
6	0xbe0e5418	-0.13899267
7	0xbe656b88	-0.22404301
8	0xbe765c90	-0.24058747
9	0xbe3b49a4	-0.1828981
10	0xbc595160	-0.01326403
11	0x3e371032	0.17877272
12	0xbc8ff110	-0.017571002
13	0x3db110f4	0.08645812
14	0x3d6d2e38	0.057905406
15	0x3e313538	0.17305458

svd_outlayer.weight f4 [1, 16]
0	0x3d362463	0.044468295
1	0xbd36515b	-0.04451118
2	0x3d7f1e46	0.06228473
3	0x3d8d4630	0.06898153
4	0xbd866583	-0.065623306
5	0x3dab6f3f	0.08370828
6	0xbd4f9295	-0.0506769
7	0xbd7adeb5	-0.061247546
8	0xbd9d2dc1	-0.076747425
9	0x3dca959a	0.098918155
10	0xbdaa91a3	-0.08328559
11	0xbd6bdfd0	-0.05758649
12	0xbdb9d7cd	-0.09074364
13	0xbdab10af	-0.083527915
14	0x3dea39ec	0.11436829
15	0x3dbbfd13	0.091791295
